…
   0   0   0   0   0   0   0   0   0   0   0   0   0   0   0   0   0   0
   0   0   0   0   0   0   0   0   0   0   0   0   0   0   0   0   0   0
   0   0   0   0   0   0   0   0   0   0   0   0   0   0   0   0   0   0
   0   0   0   0   0   0   0   0 314 138  13 128 339  18   4   1 104  25
  79 489  50 204  10 287]
__________________________________________________________________________________________________
Layer (type)                    Output Shape         Param #     Connected to                     
==================================================================================================
inputs (InputLayer)             (None, 150)          0                                            
__________________________________________________________________________________________________
reshape_1 (Reshape)             (None, 150, 1)       0           inputs[0][0]                     
__________________________________________________________________________________________________
conv1d_1 (Conv1D)               (None, 149, 512)     1536        reshape_1[0][0]                  
__________________________________________________________________________________________________
conv1d_5 (Conv1D)               (None, 148, 512)     2048        reshape_1[0][0]                  
__________________________________________________________________________________________________
conv1d_9 (Conv1D)               (None, 148, 512)     2048        reshape_1[0][0]                  
__________________________________________________________________________________________________
conv1d_2 (Conv1D)               (None, 148, 512)     524800      conv1d_1[0][0]                   
__________________________________________________________________________________________________
conv1d_6 (Conv1D)               (None, 146, 512)     786944      conv1d_5[0][0]                   
__________________________________________________________________________________________________
conv1d_10 (Conv1D)              (None, 146, 512)     786944      conv1d_9[0][0]                   
__________________________________________________________________________________________________
max_pooling1d_1 (MaxPooling1D)  (None, 74, 512)      0           conv1d_2[0][0]                   
__________________________________________________________________________________________________
max_pooling1d_3 (MaxPooling1D)  (None, 73, 512)      0           conv1d_6[0][0]                   
__________________________________________________________________________________________________
max_pooling1d_5 (MaxPooling1D)  (None, 73, 512)      0           conv1d_10[0][0]                  
__________________________________________________________________________________________________
conv1d_3 (Conv1D)               (None, 73, 512)      524800      max_pooling1d_1[0][0]            
__________________________________________________________________________________________________
conv1d_7 (Conv1D)               (None, 71, 512)      786944      max_pooling1d_3[0][0]            
__________________________________________________________________________________________________
conv1d_11 (Conv1D)              (None, 71, 512)      786944      max_pooling1d_5[0][0]            
__________________________________________________________________________________________________
conv1d_4 (Conv1D)               (None, 72, 512)      524800      conv1d_3[0][0]                   
__________________________________________________________________________________________________
conv1d_8 (Conv1D)               (None, 69, 512)      786944      conv1d_7[0][0]                   
__________________________________________________________________________________________________
conv1d_12 (Conv1D)              (None, 69, 512)      786944      conv1d_11[0][0]                  
__________________________________________________________________________________________________
max_pooling1d_2 (MaxPooling1D)  (None, 36, 512)      0           conv1d_4[0][0]                   
__________________________________________________________________________________________________
max_pooling1d_4 (MaxPooling1D)  (None, 34, 512)      0           conv1d_8[0][0]                   
__________________________________________________________________________________________________
max_pooling1d_6 (MaxPooling1D)  (None, 34, 512)      0           conv1d_12[0][0]                  
__________________________________________________________________________________________________
flatten_1 (Flatten)             (None, 18432)        0           max_pooling1d_2[0][0]            
__________________________________________________________________________________________________
flatten_2 (Flatten)             (None, 17408)        0           max_pooling1d_4[0][0]            
__________________________________________________________________________________________________
flatten_3 (Flatten)             (None, 17408)        0           max_pooling1d_6[0][0]            
__________________________________________________________________________________________________
concatenate_1 (Concatenate)     (None, 53248)        0           flatten_1[0][0]                  
                                                                 flatten_2[0][0]                  
                                                                 flatten_3[0][0]                  
__________________________________________________________________________________________________
dense_1 (Dense)                 (None, 1024)         54526976    concatenate_1[0][0]              
__________________________________________________________________________________________________
dense_2 (Dense)                 (None, 1024)         1049600     dense_1[0][0]                    
__________________________________________________________________________________________________
dense_3 (Dense)                 (None, 1024)         1049600     dense_2[0][0]                    
__________________________________________________________________________________________________
dense_4 (Dense)                 (None, 20)           20500       dense_3[0][0]                    
==================================================================================================
Total params: 62,948,372
Trainable params: 62,948,372
Non-trainable params: 0
__________________________________________________________________________________________________
Train on 23864 samples, validate on 5966 samples
Epoch 1/1024

  200/23864 [..............................] - ETA: 18:14 - loss: 5.3203 - acc: 0.0100
…
