2019-04-02 13:31:02.350678: I tensorflow/core/platform/cpu_feature_guard.cc:141] Your CPU supports instructions that this TensorFlow binary was not compiled to use: AVX2 FMA
__________________________________________________________________________________________________
Layer (type)                    Output Shape         Param #     Connected to                     
==================================================================================================
inputs (InputLayer)             (None, 3065)         0                                            
__________________________________________________________________________________________________
reshape_1 (Reshape)             (None, 3065, 1)      0           inputs[0][0]                     
__________________________________________________________________________________________________
conv1d_1 (Conv1D)               (None, 3064, 64)     192         reshape_1[0][0]                  
__________________________________________________________________________________________________
conv1d_2 (Conv1D)               (None, 3063, 64)     256         reshape_1[0][0]                  
__________________________________________________________________________________________________
conv1d_3 (Conv1D)               (None, 3062, 64)     320         reshape_1[0][0]                  
__________________________________________________________________________________________________
batch_normalization_1 (BatchNor (None, 3064, 64)     256         conv1d_1[0][0]                   
__________________________________________________________________________________________________
batch_normalization_2 (BatchNor (None, 3063, 64)     256         conv1d_2[0][0]                   
__________________________________________________________________________________________________
batch_normalization_3 (BatchNor (None, 3062, 64)     256         conv1d_3[0][0]                   
__________________________________________________________________________________________________
max_pooling1d_1 (MaxPooling1D)  (None, 1532, 64)     0           batch_normalization_1[0][0]      
__________________________________________________________________________________________________
max_pooling1d_2 (MaxPooling1D)  (None, 1531, 64)     0           batch_normalization_2[0][0]      
__________________________________________________________________________________________________
max_pooling1d_3 (MaxPooling1D)  (None, 1531, 64)     0           batch_normalization_3[0][0]      
__________________________________________________________________________________________________
flatten_1 (Flatten)             (None, 98048)        0           max_pooling1d_1[0][0]            
__________________________________________________________________________________________________
flatten_2 (Flatten)             (None, 97984)        0           max_pooling1d_2[0][0]            
__________________________________________________________________________________________________
flatten_3 (Flatten)             (None, 97984)        0           max_pooling1d_3[0][0]            
__________________________________________________________________________________________________
concatenate_1 (Concatenate)     (None, 294016)       0           flatten_1[0][0]                  
                                                                 flatten_2[0][0]                  
                                                                 flatten_3[0][0]                  
__________________________________________________________________________________________________
dropout_1 (Dropout)             (None, 294016)       0           concatenate_1[0][0]              
__________________________________________________________________________________________________
dense_1 (Dense)                 (None, 20)           5880340     dropout_1[0][0]                  
==================================================================================================
Total params: 5,881,876
Trainable params: 5,881,492
Non-trainable params: 384
__________________________________________________________________________________________________
Train on 23864 samples, validate on 5966 samples
Epoch 1/1024

  200/23864 [..............................] - ETA: 6:24 - loss: 3.1929 - acc: 0.0750
…
