…
03 00:19:27.185757: I tensorflow/core/platform/cpu_feature_guard.cc:141] Your CPU supports instructions that this TensorFlow binary was not compiled to use: AVX2 FMA
MAX LEN :  140
MIN LEN :  0
MEAN LEN :  19.583572182833006
MED LEN :  19.0
Tokenizing Result 140 ,  3065
__________________________________________________________________________________________________
Layer (type)                    Output Shape         Param #     Connected to                     
==================================================================================================
Inputs (InputLayer)             (None, 30)           0                                            
__________________________________________________________________________________________________
embedding_1 (Embedding)         (None, 30, 300)      919500      Inputs[0][0]                     
__________________________________________________________________________________________________
embedding_2 (Embedding)         (None, 30, 300)      919500      Inputs[0][0]                     
__________________________________________________________________________________________________
conv1d_1 (Conv1D)               (None, 29, 256)      153856      embedding_1[0][0]                
__________________________________________________________________________________________________
conv1d_2 (Conv1D)               (None, 28, 256)      230656      embedding_1[0][0]                
__________________________________________________________________________________________________
conv1d_3 (Conv1D)               (None, 27, 256)      307456      embedding_1[0][0]                
__________________________________________________________________________________________________
conv1d_4 (Conv1D)               (None, 29, 256)      153856      embedding_2[0][0]                
__________________________________________________________________________________________________
conv1d_5 (Conv1D)               (None, 28, 256)      230656      embedding_2[0][0]                
__________________________________________________________________________________________________
conv1d_6 (Conv1D)               (None, 27, 256)      307456      embedding_2[0][0]                
__________________________________________________________________________________________________
batch_normalization_1 (BatchNor (None, 29, 256)      1024        conv1d_1[0][0]                   
__________________________________________________________________________________________________
batch_normalization_2 (BatchNor (None, 28, 256)      1024        conv1d_2[0][0]                   
__________________________________________________________________________________________________
batch_normalization_3 (BatchNor (None, 27, 256)      1024        conv1d_3[0][0]                   
__________________________________________________________________________________________________
batch_normalization_4 (BatchNor (None, 29, 256)      1024        conv1d_4[0][0]                   
__________________________________________________________________________________________________
batch_normalization_5 (BatchNor (None, 28, 256)      1024        conv1d_5[0][0]                   
__________________________________________________________________________________________________
batch_normalization_6 (BatchNor (None, 27, 256)      1024        conv1d_6[0][0]                   
__________________________________________________________________________________________________
dropout_1 (Dropout)             (None, 29, 256)      0           batch_normalization_1[0][0]      
__________________________________________________________________________________________________
dropout_2 (Dropout)             (None, 28, 256)      0           batch_normalization_2[0][0]      
__________________________________________________________________________________________________
dropout_3 (Dropout)             (None, 27, 256)      0           batch_normalization_3[0][0]      
__________________________________________________________________________________________________
dropout_4 (Dropout)             (None, 29, 256)      0           batch_normalization_4[0][0]      
__________________________________________________________________________________________________
dropout_5 (Dropout)             (None, 28, 256)      0           batch_normalization_5[0][0]      
__________________________________________________________________________________________________
dropout_6 (Dropout)             (None, 27, 256)      0           batch_normalization_6[0][0]      
__________________________________________________________________________________________________
max_pooling1d_1 (MaxPooling1D)  (None, 14, 256)      0           dropout_1[0][0]                  
__________________________________________________________________________________________________
max_pooling1d_2 (MaxPooling1D)  (None, 14, 256)      0           dropout_2[0][0]                  
__________________________________________________________________________________________________
max_pooling1d_3 (MaxPooling1D)  (None, 13, 256)      0           dropout_3[0][0]                  
__________________________________________________________________________________________________
max_pooling1d_4 (MaxPooling1D)  (None, 14, 256)      0           dropout_4[0][0]                  
__________________________________________________________________________________________________
max_pooling1d_5 (MaxPooling1D)  (None, 14, 256)      0           dropout_5[0][0]                  
__________________________________________________________________________________________________
max_pooling1d_6 (MaxPooling1D)  (None, 13, 256)      0           dropout_6[0][0]                  
__________________________________________________________________________________________________
flatten_1 (Flatten)             (None, 3584)         0           max_pooling1d_1[0][0]            
__________________________________________________________________________________________________
flatten_2 (Flatten)             (None, 3584)         0           max_pooling1d_2[0][0]            
__________________________________________________________________________________________________
flatten_3 (Flatten)             (None, 3328)         0           max_pooling1d_3[0][0]            
__________________________________________________________________________________________________
flatten_4 (Flatten)             (None, 3584)         0           max_pooling1d_4[0][0]            
__________________________________________________________________________________________________
flatten_5 (Flatten)             (None, 3584)         0           max_pooling1d_5[0][0]            
__________________________________________________________________________________________________
flatten_6 (Flatten)             (None, 3328)         0           max_pooling1d_6[0][0]            
__________________________________________________________________________________________________
concatenate_1 (Concatenate)     (None, 10496)        0           flatten_1[0][0]                  
                                                                 flatten_2[0][0]                  
                                                                 flatten_3[0][0]                  
__________________________________________________________________________________________________
concatenate_2 (Concatenate)     (None, 10496)        0           flatten_4[0][0]                  
                                                                 flatten_5[0][0]                  
                                                                 flatten_6[0][0]                  
__________________________________________________________________________________________________
add_1 (Add)                     (None, 10496)        0           concatenate_1[0][0]              
                                                                 concatenate_2[0][0]              
__________________________________________________________________________________________________
dropout_7 (Dropout)             (None, 10496)        0           add_1[0][0]                      
__________________________________________________________________________________________________
dense_1 (Dense)                 (None, 20)           209940      dropout_7[0][0]                  
==================================================================================================
Total params: 3,439,020
Trainable params: 3,435,948
Non-trainable params: 3,072
__________________________________________________________________________________________________
Train on 23864 samples, validate on 5966 samples
Epoch 1/256
 - 40s - loss: 16.1941 - acc: 0.3998 - val_loss: 9.9900 - val_acc: 0.5327
…
