…
       cuisine                                        ingredients
0        greek  romaine lettuce black olives grape tomatoes ga...
1  southern_us  plain flour ground pepper salt tomatoes ground...
2     filipino  eggs pepper salt mayonaise cooking oil green c...
3       indian                     water vegetable oil wheat salt
4       indian  black pepper shallots cornflour cayenne pepper... None
_________________________________________________________________
Layer (type)                 Output Shape              Param #   
=================================================================
inputs (InputLayer)          (None, 150)               0         
_________________________________________________________________
embedding_1 (Embedding)      (None, 150, 50)           50000     
_________________________________________________________________
lstm_1 (LSTM)                (None, 64)                29440     
_________________________________________________________________
FC1 (Dense)                  (None, 256)               16640     
_________________________________________________________________
activation_1 (Activation)    (None, 256)               0         
_________________________________________________________________
FC2 (Dense)                  (None, 256)               65792     
_________________________________________________________________
activation_2 (Activation)    (None, 256)               0         
_________________________________________________________________
dropout_1 (Dropout)          (None, 256)               0         
_________________________________________________________________
out_layer (Dense)            (None, 20)                5140      
_________________________________________________________________
activation_3 (Activation)    (None, 20)                0         
=================================================================
Total params: 167,012
Trainable params: 167,012
Non-trainable params: 0
_________________________________________________________________
Train on 27045 samples, validate on 6762 samples
Epoch 1/500

  256/27045 [..............................] - ETA: 1:27 - loss: 2.9956 - acc: 0.0352
  512/27045 [..............................] - ETA: 50s - loss: 2.9932 - acc: 0.1406 
…
