…
       cuisine                                        ingredients
0        greek  romaine lettuce black olives grape tomatoes ga...
1  southern_us  plain flour ground pepper salt tomatoes ground...
2     filipino  eggs pepper salt mayonaise cooking oil green c...
3       indian                     water vegetable oil wheat salt
4       indian  black pepper shallots cornflour cayenne pepper... None
_________________________________________________________________
Layer (type)                 Output Shape              Param #   
=================================================================
inputs (InputLayer)          (None, 150)               0         
_________________________________________________________________
embedding_1 (Embedding)      (None, 150, 128)          12800     
_________________________________________________________________
lstm_1 (LSTM)                (None, 150, 64)           49408     
_________________________________________________________________
lstm_2 (LSTM)                (None, 64)                33024     
_________________________________________________________________
FC1 (Dense)                  (None, 256)               16640     
_________________________________________________________________
activation_1 (Activation)    (None, 256)               0         
_________________________________________________________________
FC2 (Dense)                  (None, 256)               65792     
_________________________________________________________________
activation_2 (Activation)    (None, 256)               0         
_________________________________________________________________
dropout_1 (Dropout)          (None, 256)               0         
_________________________________________________________________
out_layer (Dense)            (None, 20)                5140      
_________________________________________________________________
activation_3 (Activation)    (None, 20)                0         
=================================================================
Total params: 182,804
Trainable params: 182,804
Non-trainable params: 0
_________________________________________________________________
Train on 22372 samples, validate on 7458 samples
Epoch 1/256

   64/22372 [..............................] - ETA: 10:05 - loss: 2.9958 - acc: 0.0312
  128/22372 [..............................] - ETA: 5:44 - loss: 2.9910 - acc: 0.1328 
…
       cuisine                                        ingredients
0        greek  romaine lettuce black olives grape tomatoes ga...
1  southern_us  plain flour ground pepper salt tomatoes ground...
2     filipino  eggs pepper salt mayonaise cooking oil green c...
3       indian                     water vegetable oil wheat salt
4       indian  black pepper shallots cornflour cayenne pepper... None
_________________________________________________________________
Layer (type)                 Output Shape              Param #   
=================================================================
inputs (InputLayer)          (None, 150)               0         
_________________________________________________________________
embedding_1 (Embedding)      (None, 150, 128)          1280000   
_________________________________________________________________
lstm_1 (LSTM)                (None, 150, 64)           49408     
_________________________________________________________________
lstm_2 (LSTM)                (None, 64)                33024     
_________________________________________________________________
FC1 (Dense)                  (None, 256)               16640     
_________________________________________________________________
activation_1 (Activation)    (None, 256)               0         
_________________________________________________________________
FC2 (Dense)                  (None, 256)               65792     
_________________________________________________________________
activation_2 (Activation)    (None, 256)               0         
_________________________________________________________________
dropout_1 (Dropout)          (None, 256)               0         
_________________________________________________________________
out_layer (Dense)            (None, 20)                5140      
_________________________________________________________________
activation_3 (Activation)    (None, 20)                0         
=================================================================
Total params: 1,450,004
Trainable params: 1,450,004
Non-trainable params: 0
_________________________________________________________________
Train on 22372 samples, validate on 7458 samples
Epoch 1/256

   64/22372 [..............................] - ETA: 10:10 - loss: 2.9955 - acc: 0.0781
  128/22372 [..............................] - ETA: 5:49 - loss: 2.9907 - acc: 0.0938 
…
2019-03-24 07:57:36.127708: I tensorflow/core/platform/cpu_feature_guard.cc:141] Your CPU supports instructions that this TensorFlow binary was not compiled to use: AVX2 FMA
140 3065
[  0   0   0   0   0   0   0   0   0   0   0   0   0   0   0   0 314 138
  13 128 339  18   4   1 104  25  79 489  50 204  10 287]
32 3065
__________________________________________________________________________________________________
Layer (type)                    Output Shape         Param #     Connected to                     
==================================================================================================
inputs (InputLayer)             (None, 32)           0                                            
__________________________________________________________________________________________________
embedding_1 (Embedding)         (None, 32, 64)       196160      inputs[0][0]                     
__________________________________________________________________________________________________
reshape_1 (Reshape)             (None, 32, 64, 1)    0           embedding_1[0][0]                
__________________________________________________________________________________________________
conv2d_1 (Conv2D)               (None, 30, 1, 512)   98816       reshape_1[0][0]                  
__________________________________________________________________________________________________
conv2d_2 (Conv2D)               (None, 29, 1, 512)   131584      reshape_1[0][0]                  
__________________________________________________________________________________________________
conv2d_3 (Conv2D)               (None, 28, 1, 512)   164352      reshape_1[0][0]                  
__________________________________________________________________________________________________
max_pooling2d_1 (MaxPooling2D)  (None, 1, 1, 512)    0           conv2d_1[0][0]                   
__________________________________________________________________________________________________
max_pooling2d_2 (MaxPooling2D)  (None, 1, 1, 512)    0           conv2d_2[0][0]                   
__________________________________________________________________________________________________
max_pooling2d_3 (MaxPooling2D)  (None, 1, 1, 512)    0           conv2d_3[0][0]                   
__________________________________________________________________________________________________
concatenate_1 (Concatenate)     (None, 3, 1, 512)    0           max_pooling2d_1[0][0]            
                                                                 max_pooling2d_2[0][0]            
                                                                 max_pooling2d_3[0][0]            
__________________________________________________________________________________________________
flatten_1 (Flatten)             (None, 1536)         0           concatenate_1[0][0]              
__________________________________________________________________________________________________
dropout_1 (Dropout)             (None, 1536)         0           flatten_1[0][0]                  
__________________________________________________________________________________________________
dense_1 (Dense)                 (None, 20)           30740       dropout_1[0][0]                  
==================================================================================================
Total params: 621,652
Trainable params: 621,652
Non-trainable params: 0
__________________________________________________________________________________________________
Train on 22372 samples, validate on 7458 samples
Epoch 1/256

   32/22372 [..............................] - ETA: 3:56 - loss: 2.9866 - acc: 0.0312
…
