2019-03-28 07:23:19.325746: I tensorflow/core/platform/cpu_feature_guard.cc:141] Your CPU supports instructions that this TensorFlow binary was not compiled to use: AVX2 FMA
140 3065
39774 3065
__________________________________________________________________________________________________
Layer (type)                    Output Shape         Param #     Connected to                     
==================================================================================================
inputs (InputLayer)             (None, 3065)         0                                            
__________________________________________________________________________________________________
reshape_1 (Reshape)             (None, 3065, 1)      0           inputs[0][0]                     
__________________________________________________________________________________________________
conv1d_1 (Conv1D)               (None, 3064, 128)    384         reshape_1[0][0]                  
__________________________________________________________________________________________________
conv1d_5 (Conv1D)               (None, 3063, 128)    512         reshape_1[0][0]                  
__________________________________________________________________________________________________
conv1d_9 (Conv1D)               (None, 3063, 128)    512         reshape_1[0][0]                  
__________________________________________________________________________________________________
conv1d_2 (Conv1D)               (None, 3063, 128)    32896       conv1d_1[0][0]                   
__________________________________________________________________________________________________
conv1d_6 (Conv1D)               (None, 3061, 128)    49280       conv1d_5[0][0]                   
__________________________________________________________________________________________________
conv1d_10 (Conv1D)              (None, 3061, 128)    49280       conv1d_9[0][0]                   
__________________________________________________________________________________________________
max_pooling1d_1 (MaxPooling1D)  (None, 1531, 128)    0           conv1d_2[0][0]                   
__________________________________________________________________________________________________
max_pooling1d_3 (MaxPooling1D)  (None, 1530, 128)    0           conv1d_6[0][0]                   
__________________________________________________________________________________________________
max_pooling1d_5 (MaxPooling1D)  (None, 1530, 128)    0           conv1d_10[0][0]                  
__________________________________________________________________________________________________
conv1d_3 (Conv1D)               (None, 1530, 128)    32896       max_pooling1d_1[0][0]            
__________________________________________________________________________________________________
conv1d_7 (Conv1D)               (None, 1528, 128)    49280       max_pooling1d_3[0][0]            
__________________________________________________________________________________________________
conv1d_11 (Conv1D)              (None, 1528, 128)    49280       max_pooling1d_5[0][0]            
__________________________________________________________________________________________________
conv1d_4 (Conv1D)               (None, 1529, 128)    32896       conv1d_3[0][0]                   
__________________________________________________________________________________________________
conv1d_8 (Conv1D)               (None, 1526, 128)    49280       conv1d_7[0][0]                   
__________________________________________________________________________________________________
conv1d_12 (Conv1D)              (None, 1526, 128)    49280       conv1d_11[0][0]                  
__________________________________________________________________________________________________
max_pooling1d_2 (MaxPooling1D)  (None, 764, 128)     0           conv1d_4[0][0]                   
__________________________________________________________________________________________________
max_pooling1d_4 (MaxPooling1D)  (None, 763, 128)     0           conv1d_8[0][0]                   
__________________________________________________________________________________________________
max_pooling1d_6 (MaxPooling1D)  (None, 763, 128)     0           conv1d_12[0][0]                  
__________________________________________________________________________________________________
flatten_1 (Flatten)             (None, 97792)        0           max_pooling1d_2[0][0]            
__________________________________________________________________________________________________
flatten_2 (Flatten)             (None, 97664)        0           max_pooling1d_4[0][0]            
__________________________________________________________________________________________________
flatten_3 (Flatten)             (None, 97664)        0           max_pooling1d_6[0][0]            
__________________________________________________________________________________________________
concatenate_1 (Concatenate)     (None, 293120)       0           flatten_1[0][0]                  
                                                                 flatten_2[0][0]                  
                                                                 flatten_3[0][0]                  
__________________________________________________________________________________________________
dense_1 (Dense)                 (None, 1024)         300155904   concatenate_1[0][0]              
__________________________________________________________________________________________________
dense_2 (Dense)                 (None, 1024)         1049600     dense_1[0][0]                    
__________________________________________________________________________________________________
dense_3 (Dense)                 (None, 1024)         1049600     dense_2[0][0]                    
__________________________________________________________________________________________________
dense_4 (Dense)                 (None, 20)           20500       dense_3[0][0]                    
==================================================================================================
Total params: 302,671,380
Trainable params: 302,671,380
Non-trainable params: 0
__________________________________________________________________________________________________
Train on 23864 samples, validate on 5966 samples
Epoch 1/1024

  200/23864 [..............................] - ETA: 40:33 - loss: 2.9954 - acc: 0.0450
…
