…
 [0. 0. 0. ... 0. 0. 0.]
 [0. 0. 0. ... 0. 0. 0.]
 ...
 [0. 0. 0. ... 0. 0. 0.]
 [0. 0. 0. ... 0. 0. 0.]
 [0. 0. 0. ... 0. 0. 0.]]
140 3065
[  0   0   0   0   0   0   0   0   0   0   0   0   0   0   0   0 314 138
  13 128 339  18   4   1 104  25  79 489  50 204  10 287]
32 3065
__________________________________________________________________________________________________
Layer (type)                    Output Shape         Param #     Connected to                     
==================================================================================================
inputs (InputLayer)             (None, 32)           0                                            
__________________________________________________________________________________________________
embedding_1 (Embedding)         (None, 32, 16)       49040       inputs[0][0]                     
__________________________________________________________________________________________________
conv1d_1 (Conv1D)               (None, 30, 512)      25088       embedding_1[0][0]                
__________________________________________________________________________________________________
conv1d_2 (Conv1D)               (None, 29, 512)      33280       embedding_1[0][0]                
__________________________________________________________________________________________________
conv1d_3 (Conv1D)               (None, 28, 512)      41472       embedding_1[0][0]                
__________________________________________________________________________________________________
max_pooling1d_1 (MaxPooling1D)  (None, 15, 512)      0           conv1d_1[0][0]                   
__________________________________________________________________________________________________
max_pooling1d_2 (MaxPooling1D)  (None, 14, 512)      0           conv1d_2[0][0]                   
__________________________________________________________________________________________________
max_pooling1d_3 (MaxPooling1D)  (None, 14, 512)      0           conv1d_3[0][0]                   
__________________________________________________________________________________________________
flatten_1 (Flatten)             (None, 7680)         0           max_pooling1d_1[0][0]            
__________________________________________________________________________________________________
flatten_2 (Flatten)             (None, 7168)         0           max_pooling1d_2[0][0]            
__________________________________________________________________________________________________
flatten_3 (Flatten)             (None, 7168)         0           max_pooling1d_3[0][0]            
__________________________________________________________________________________________________
concatenate_1 (Concatenate)     (None, 22016)        0           flatten_1[0][0]                  
                                                                 flatten_2[0][0]                  
                                                                 flatten_3[0][0]                  
__________________________________________________________________________________________________
dense_1 (Dense)                 (None, 1024)         22545408    concatenate_1[0][0]              
__________________________________________________________________________________________________
dropout_1 (Dropout)             (None, 1024)         0           dense_1[0][0]                    
__________________________________________________________________________________________________
dense_2 (Dense)                 (None, 1024)         1049600     dropout_1[0][0]                  
__________________________________________________________________________________________________
dense_3 (Dense)                 (None, 20)           20500       dense_2[0][0]                    
==================================================================================================
Total params: 23,764,388
Trainable params: 23,764,388
Non-trainable params: 0
__________________________________________________________________________________________________
Train on 28637 samples, validate on 3182 samples
Epoch 1/256

  200/28637 [..............................] - ETA: 8:02 - loss: 25.0364 - acc: 0.0250
…
