…
 90%|█████████ | 9/10 [1:20:21<04:33, 273.15s/it, best loss: -0.7390386162989578]                                                                                  - 3s 261us/step

 90%|█████████ | 9/10 [1:20:21<04:33, 273.15s/it, best loss: -0.7390386162989578]100%|██████████| 10/10 [1:20:21<00:00, 804.05s/it, best loss: -0.7470836684958932]
__________________________________________________________________________________________________
Layer (type)                    Output Shape         Param #     Connected to                     
==================================================================================================
Inputs (InputLayer)             (None, 30)           0                                            
__________________________________________________________________________________________________
embedding_19 (Embedding)        (None, 30, 300)      919500      Inputs[0][0]                     
__________________________________________________________________________________________________
embedding_20 (Embedding)        (None, 30, 300)      919500      Inputs[0][0]                     
__________________________________________________________________________________________________
conv1d_55 (Conv1D)              (None, 26, 512)      768512      embedding_19[0][0]               
__________________________________________________________________________________________________
conv1d_56 (Conv1D)              (None, 27, 512)      614912      embedding_19[0][0]               
__________________________________________________________________________________________________
conv1d_57 (Conv1D)              (None, 29, 512)      307712      embedding_19[0][0]               
__________________________________________________________________________________________________
conv1d_58 (Conv1D)              (None, 29, 512)      307712      embedding_20[0][0]               
__________________________________________________________________________________________________
conv1d_59 (Conv1D)              (None, 26, 512)      768512      embedding_20[0][0]               
__________________________________________________________________________________________________
conv1d_60 (Conv1D)              (None, 26, 512)      768512      embedding_20[0][0]               
__________________________________________________________________________________________________
batch_normalization_55 (BatchNo (None, 26, 512)      2048        conv1d_55[0][0]                  
__________________________________________________________________________________________________
batch_normalization_56 (BatchNo (None, 27, 512)      2048        conv1d_56[0][0]                  
__________________________________________________________________________________________________
batch_normalization_57 (BatchNo (None, 29, 512)      2048        conv1d_57[0][0]                  
__________________________________________________________________________________________________
batch_normalization_58 (BatchNo (None, 29, 512)      2048        conv1d_58[0][0]                  
__________________________________________________________________________________________________
batch_normalization_59 (BatchNo (None, 26, 512)      2048        conv1d_59[0][0]                  
__________________________________________________________________________________________________
batch_normalization_60 (BatchNo (None, 26, 512)      2048        conv1d_60[0][0]                  
__________________________________________________________________________________________________
max_pooling1d_55 (MaxPooling1D) (None, 13, 512)      0           batch_normalization_55[0][0]     
__________________________________________________________________________________________________
max_pooling1d_56 (MaxPooling1D) (None, 13, 512)      0           batch_normalization_56[0][0]     
__________________________________________________________________________________________________
max_pooling1d_57 (MaxPooling1D) (None, 14, 512)      0           batch_normalization_57[0][0]     
__________________________________________________________________________________________________
max_pooling1d_58 (MaxPooling1D) (None, 14, 512)      0           batch_normalization_58[0][0]     
__________________________________________________________________________________________________
max_pooling1d_59 (MaxPooling1D) (None, 13, 512)      0           batch_normalization_59[0][0]     
__________________________________________________________________________________________________
max_pooling1d_60 (MaxPooling1D) (None, 13, 512)      0           batch_normalization_60[0][0]     
__________________________________________________________________________________________________
flatten_55 (Flatten)            (None, 6656)         0           max_pooling1d_55[0][0]           
__________________________________________________________________________________________________
flatten_56 (Flatten)            (None, 6656)         0           max_pooling1d_56[0][0]           
__________________________________________________________________________________________________
flatten_57 (Flatten)            (None, 7168)         0           max_pooling1d_57[0][0]           
__________________________________________________________________________________________________
flatten_58 (Flatten)            (None, 7168)         0           max_pooling1d_58[0][0]           
__________________________________________________________________________________________________
flatten_59 (Flatten)            (None, 6656)         0           max_pooling1d_59[0][0]           
__________________________________________________________________________________________________
flatten_60 (Flatten)            (None, 6656)         0           max_pooling1d_60[0][0]           
__________________________________________________________________________________________________
concatenate_28 (Concatenate)    (None, 20480)        0           flatten_55[0][0]                 
                                                                 flatten_56[0][0]                 
                                                                 flatten_57[0][0]                 
__________________________________________________________________________________________________
concatenate_29 (Concatenate)    (None, 20480)        0           flatten_58[0][0]                 
                                                                 flatten_59[0][0]                 
                                                                 flatten_60[0][0]                 
__________________________________________________________________________________________________
dropout_28 (Dropout)            (None, 20480)        0           concatenate_28[0][0]             
__________________________________________________________________________________________________
dropout_29 (Dropout)            (None, 20480)        0           concatenate_29[0][0]             
__________________________________________________________________________________________________
concatenate_30 (Concatenate)    (None, 40960)        0           dropout_28[0][0]                 
                                                                 dropout_29[0][0]                 
__________________________________________________________________________________________________
dropout_30 (Dropout)            (None, 40960)        0           concatenate_30[0][0]             
__________________________________________________________________________________________________
dense_10 (Dense)                (None, 20)           819220      dropout_30[0][0]                 
==================================================================================================
Total params: 6,206,380
Trainable params: 5,280,736
Non-trainable params: 925,644
__________________________________________________________________________________________________

  32/9944 [..............................] - ETA: 2s
 256/9944 [..............................] - ETA: 2s
…
