…
 90%|█████████ | 9/10 [45:46<04:58, 298.66s/it, best loss: -0.7979686242481057]                                                                               9944/9944 [==============================]
 90%|█████████ | 9/10 [45:47<04:58, 298.66s/it, best loss: -0.7979686242481057]                                                                                - 4s 361us/step

 90%|█████████ | 9/10 [45:47<04:58, 298.66s/it, best loss: -0.7979686242481057]100%|██████████| 10/10 [45:47<00:00, 272.26s/it, best loss: -0.7979686242481057]
_________________________________________________________________
Layer (type)                 Output Shape              Param #   
=================================================================
inputs (InputLayer)          (None, 3065)              0         
_________________________________________________________________
reshape_6 (Reshape)          (None, 1, 3065)           0         
_________________________________________________________________
lstm_26 (LSTM)               (None, 1, 512)            7327744   
_________________________________________________________________
lstm_27 (LSTM)               (None, 1, 512)            2099200   
_________________________________________________________________
lstm_28 (LSTM)               (None, 1, 512)            2099200   
_________________________________________________________________
lstm_29 (LSTM)               (None, 1, 1024)           6295552   
_________________________________________________________________
lstm_30 (LSTM)               (None, 512)               3147776   
_________________________________________________________________
dense_6 (Dense)              (None, 20)                10260     
=================================================================
Total params: 20,979,732
Trainable params: 20,979,732
Non-trainable params: 0
_________________________________________________________________
[0. 0. 0. 0. 0. 0. 1. 0. 0. 0. 0. 0. 0. 0. 0. 0. 0. 0. 0. 0.]
[0. 0. 0. 0. 0. 0. 0. 0. 0. 1. 0. 0. 0. 0. 0. 0. 0. 0. 0. 0.]

  32/9944 [..............................] - ETA: 3s
 192/9944 [..............................] - ETA: 3s
…
