…
 90%|█████████ | 9/10 [41:20<04:00, 240.11s/it, best loss: -0.7859010458088458]                                                                               9944/9944 [==============================]
 90%|█████████ | 9/10 [41:20<04:00, 240.11s/it, best loss: -0.7859010458088458]                                                                                - 4s 362us/step

 90%|█████████ | 9/10 [41:20<04:00, 240.11s/it, best loss: -0.7859010458088458]100%|██████████| 10/10 [41:20<00:00, 227.05s/it, best loss: -0.7859010458088458]
_________________________________________________________________
Layer (type)                 Output Shape              Param #   
=================================================================
inputs (InputLayer)          (None, 3065)              0         
_________________________________________________________________
reshape_3 (Reshape)          (None, 1, 3065)           0         
_________________________________________________________________
lstm_11 (LSTM)               (None, 1, 1024)           16752640  
_________________________________________________________________
lstm_12 (LSTM)               (None, 1, 128)            590336    
_________________________________________________________________
lstm_13 (LSTM)               (None, 1, 512)            1312768   
_________________________________________________________________
lstm_14 (LSTM)               (None, 1, 512)            2099200   
_________________________________________________________________
lstm_15 (LSTM)               (None, 256)               787456    
_________________________________________________________________
dense_3 (Dense)              (None, 20)                5140      
=================================================================
Total params: 21,547,540
Trainable params: 21,547,540
Non-trainable params: 0
_________________________________________________________________

  32/9944 [..............................] - ETA: 3s
 192/9944 [..............................] - ETA: 3s
 352/9944 [>.............................] - ETA: 3s
 512/9944 [>.............................] - ETA: 3s
…
