…
 90%|█████████ | 9/10 [1:12:30<07:29, 449.85s/it, best loss: -0.749597747385358]                                                                                9944/9944 [==============================]
 90%|█████████ | 9/10 [1:12:30<07:29, 449.85s/it, best loss: -0.749597747385358]                                                                                 - 4s 356us/step

 90%|█████████ | 9/10 [1:12:30<07:29, 449.85s/it, best loss: -0.749597747385358]100%|██████████| 10/10 [1:12:30<00:00, 361.12s/it, best loss: -0.749597747385358]
_________________________________________________________________
Layer (type)                 Output Shape              Param #   
=================================================================
input_6 (InputLayer)         (None, 30)                0         
_________________________________________________________________
embedding_6 (Embedding)      (None, 30, 300)           919500    
_________________________________________________________________
lambda_6 (Lambda)            (None, 1, 300)            0         
_________________________________________________________________
reshape_6 (Reshape)          (None, 1, 300)            0         
_________________________________________________________________
lstm_26 (LSTM)               (None, 1, 512)            1665024   
_________________________________________________________________
lstm_27 (LSTM)               (None, 1, 512)            2099200   
_________________________________________________________________
lstm_28 (LSTM)               (None, 1, 512)            2099200   
_________________________________________________________________
lstm_29 (LSTM)               (None, 1, 1024)           6295552   
_________________________________________________________________
lstm_30 (LSTM)               (None, 512)               3147776   
_________________________________________________________________
dense_6 (Dense)              (None, 20)                10260     
=================================================================
Total params: 16,236,512
Trainable params: 15,317,012
Non-trainable params: 919,500
_________________________________________________________________

  32/9944 [..............................] - ETA: 3s
 192/9944 [..............................] - ETA: 3s
 352/9944 [>.............................] - ETA: 3s
 512/9944 [>.............................] - ETA: 3s
…
