…
 90%|█████████ | 9/10 [1:02:57<06:10, 370.66s/it, best loss: -0.7484915527430448]                                                                                 9944/9944 [==============================]
 90%|█████████ | 9/10 [1:02:57<06:10, 370.66s/it, best loss: -0.7484915527430448]                                                                                  - 3s 347us/step

 90%|█████████ | 9/10 [1:02:57<06:10, 370.66s/it, best loss: -0.7484915527430448]100%|██████████| 10/10 [1:02:57<00:00, 289.17s/it, best loss: -0.7484915527430448]
_________________________________________________________________
Layer (type)                 Output Shape              Param #   
=================================================================
input_6 (InputLayer)         (None, 30)                0         
_________________________________________________________________
embedding_6 (Embedding)      (None, 30, 300)           919500    
_________________________________________________________________
lambda_6 (Lambda)            (None, 1, 300)            0         
_________________________________________________________________
reshape_6 (Reshape)          (None, 1, 300)            0         
_________________________________________________________________
lstm_26 (LSTM)               (None, 1, 512)            1665024   
_________________________________________________________________
lstm_27 (LSTM)               (None, 1, 512)            2099200   
_________________________________________________________________
lstm_28 (LSTM)               (None, 1, 512)            2099200   
_________________________________________________________________
lstm_29 (LSTM)               (None, 1, 1024)           6295552   
_________________________________________________________________
lstm_30 (LSTM)               (None, 512)               3147776   
_________________________________________________________________
dense_6 (Dense)              (None, 20)                10260     
=================================================================
Total params: 16,236,512
Trainable params: 15,317,012
Non-trainable params: 919,500
_________________________________________________________________
[0. 0. 0. 0. 0. 0. 1. 0. 0. 0. 0. 0. 0. 0. 0. 0. 0. 0. 0. 0.]
[0. 0. 0. 0. 0. 0. 0. 0. 0. 1. 0. 0. 0. 0. 0. 0. 0. 0. 0. 0.]

  32/9944 [..............................] - ETA: 3s
 192/9944 [..............................] - ETA: 3s
…
