…
 90%|█████████ | 9/10 [10:41<01:16, 76.16s/it, best loss: -0.7768503620753054]                                                                              9944/9944 [==============================]
 90%|█████████ | 9/10 [10:41<01:16, 76.16s/it, best loss: -0.7768503620753054]                                                                               - 1s 139us/step

 90%|█████████ | 9/10 [10:41<01:16, 76.16s/it, best loss: -0.7768503620753054]100%|██████████| 10/10 [10:41<00:00, 95.17s/it, best loss: -0.7972646822204345]
_________________________________________________________________
Layer (type)                 Output Shape              Param #   
=================================================================
inputs (InputLayer)          (None, 3065)              0         
_________________________________________________________________
dense_46 (Dense)             (None, 2048)              6279168   
_________________________________________________________________
batch_normalization_37 (Batc (None, 2048)              8192      
_________________________________________________________________
dropout_37 (Dropout)         (None, 2048)              0         
_________________________________________________________________
dense_47 (Dense)             (None, 2048)              4196352   
_________________________________________________________________
batch_normalization_38 (Batc (None, 2048)              8192      
_________________________________________________________________
dropout_38 (Dropout)         (None, 2048)              0         
_________________________________________________________________
dense_48 (Dense)             (None, 256)               524544    
_________________________________________________________________
batch_normalization_39 (Batc (None, 256)               1024      
_________________________________________________________________
dropout_39 (Dropout)         (None, 256)               0         
_________________________________________________________________
dense_49 (Dense)             (None, 512)               131584    
_________________________________________________________________
batch_normalization_40 (Batc (None, 512)               2048      
_________________________________________________________________
dropout_40 (Dropout)         (None, 512)               0         
_________________________________________________________________
dense_50 (Dense)             (None, 20)                10260     
=================================================================
Total params: 11,161,364
Trainable params: 11,151,636
Non-trainable params: 9,728
_________________________________________________________________
[0. 0. 0. 0. 0. 0. 1. 0. 0. 0. 0. 0. 0. 0. 0. 0. 0. 0. 0. 0.]
[0. 0. 0. 0. 0. 0. 0. 0. 0. 1. 0. 0. 0. 0. 0. 0. 0. 0. 0. 0.]

  32/9944 [..............................] - ETA: 1s
 512/9944 [>.............................] - ETA: 1s
…
