…
 90%|█████████ | 9/10 [12:40<01:08, 68.76s/it, best loss: -0.7950522927919512]                                                                              9944/9944 [==============================]
 90%|█████████ | 9/10 [12:40<01:08, 68.76s/it, best loss: -0.7950522927919512]                                                                               - 1s 145us/step

 90%|█████████ | 9/10 [12:40<01:08, 68.76s/it, best loss: -0.7950522927919512]100%|██████████| 10/10 [12:40<00:00, 93.84s/it, best loss: -0.7959573612708002]
_________________________________________________________________
Layer (type)                 Output Shape              Param #   
=================================================================
inputs (InputLayer)          (None, 3065)              0         
_________________________________________________________________
dense_46 (Dense)             (None, 2048)              6279168   
_________________________________________________________________
batch_normalization_37 (Batc (None, 2048)              8192      
_________________________________________________________________
dropout_37 (Dropout)         (None, 2048)              0         
_________________________________________________________________
dense_47 (Dense)             (None, 2048)              4196352   
_________________________________________________________________
batch_normalization_38 (Batc (None, 2048)              8192      
_________________________________________________________________
dropout_38 (Dropout)         (None, 2048)              0         
_________________________________________________________________
dense_48 (Dense)             (None, 256)               524544    
_________________________________________________________________
batch_normalization_39 (Batc (None, 256)               1024      
_________________________________________________________________
dropout_39 (Dropout)         (None, 256)               0         
_________________________________________________________________
dense_49 (Dense)             (None, 512)               131584    
_________________________________________________________________
batch_normalization_40 (Batc (None, 512)               2048      
_________________________________________________________________
dropout_40 (Dropout)         (None, 512)               0         
_________________________________________________________________
dense_50 (Dense)             (None, 20)                10260     
=================================================================
Total params: 11,161,364
Trainable params: 11,151,636
Non-trainable params: 9,728
_________________________________________________________________

  32/9944 [..............................] - ETA: 1s
 448/9944 [>.............................] - ETA: 1s
 832/9944 [=>............................] - ETA: 1s
1184/9944 [==>...........................] - ETA: 1s
…
