…
 90%|█████████ | 9/10 [10:34<00:53, 53.42s/it, best loss: -0.7416532581982264]                                                                               - 1s 134us/step

 90%|█████████ | 9/10 [10:34<00:53, 53.42s/it, best loss: -0.7416532581982264]100%|██████████| 10/10 [10:34<00:00, 57.44s/it, best loss: -0.7416532581982264]
__________________________________________________________________________________________________
Layer (type)                    Output Shape         Param #     Connected to                     
==================================================================================================
input_7 (InputLayer)            (None, 30)           0                                            
__________________________________________________________________________________________________
embedding_7 (Embedding)         (None, 30, 300)      919500      input_7[0][0]                    
__________________________________________________________________________________________________
conv1d_19 (Conv1D)              (None, 29, 128)      76928       embedding_7[0][0]                
__________________________________________________________________________________________________
conv1d_20 (Conv1D)              (None, 27, 256)      307456      embedding_7[0][0]                
__________________________________________________________________________________________________
conv1d_21 (Conv1D)              (None, 27, 256)      307456      embedding_7[0][0]                
__________________________________________________________________________________________________
max_pooling1d_19 (MaxPooling1D) (None, 14, 128)      0           conv1d_19[0][0]                  
__________________________________________________________________________________________________
max_pooling1d_20 (MaxPooling1D) (None, 9, 256)       0           conv1d_20[0][0]                  
__________________________________________________________________________________________________
max_pooling1d_21 (MaxPooling1D) (None, 9, 256)       0           conv1d_21[0][0]                  
__________________________________________________________________________________________________
flatten_19 (Flatten)            (None, 1792)         0           max_pooling1d_19[0][0]           
__________________________________________________________________________________________________
flatten_20 (Flatten)            (None, 2304)         0           max_pooling1d_20[0][0]           
__________________________________________________________________________________________________
flatten_21 (Flatten)            (None, 2304)         0           max_pooling1d_21[0][0]           
__________________________________________________________________________________________________
concatenate_7 (Concatenate)     (None, 6400)         0           flatten_19[0][0]                 
                                                                 flatten_20[0][0]                 
                                                                 flatten_21[0][0]                 
__________________________________________________________________________________________________
dropout_7 (Dropout)             (None, 6400)         0           concatenate_7[0][0]              
__________________________________________________________________________________________________
dense_7 (Dense)                 (None, 20)           128020      dropout_7[0][0]                  
==================================================================================================
Total params: 1,739,360
Trainable params: 819,860
Non-trainable params: 919,500
__________________________________________________________________________________________________

  32/9944 [..............................] - ETA: 1s
 640/9944 [>.............................] - ETA: 0s
…
