…
 90%|█████████ | 9/10 [1:09:02<04:51, 291.68s/it, best loss: -0.753620273531778]                                                                                 - 3s 336us/step

 90%|█████████ | 9/10 [1:09:02<04:51, 291.68s/it, best loss: -0.753620273531778]100%|██████████| 10/10 [1:09:02<00:00, 499.05s/it, best loss: -0.753620273531778]
__________________________________________________________________________________________________
Layer (type)                    Output Shape         Param #     Connected to                     
==================================================================================================
Inputs (InputLayer)             (None, 30)           0                                            
__________________________________________________________________________________________________
embedding_13 (Embedding)        (None, 30, 300)      919500      Inputs[0][0]                     
__________________________________________________________________________________________________
embedding_14 (Embedding)        (None, 30, 300)      919500      Inputs[0][0]                     
__________________________________________________________________________________________________
conv1d_37 (Conv1D)              (None, 29, 256)      153856      embedding_13[0][0]               
__________________________________________________________________________________________________
conv1d_38 (Conv1D)              (None, 26, 256)      384256      embedding_13[0][0]               
__________________________________________________________________________________________________
conv1d_39 (Conv1D)              (None, 27, 256)      307456      embedding_13[0][0]               
__________________________________________________________________________________________________
conv1d_40 (Conv1D)              (None, 29, 256)      153856      embedding_14[0][0]               
__________________________________________________________________________________________________
conv1d_41 (Conv1D)              (None, 26, 256)      384256      embedding_14[0][0]               
__________________________________________________________________________________________________
conv1d_42 (Conv1D)              (None, 27, 256)      307456      embedding_14[0][0]               
__________________________________________________________________________________________________
batch_normalization_37 (BatchNo (None, 29, 256)      1024        conv1d_37[0][0]                  
__________________________________________________________________________________________________
batch_normalization_38 (BatchNo (None, 26, 256)      1024        conv1d_38[0][0]                  
__________________________________________________________________________________________________
batch_normalization_39 (BatchNo (None, 27, 256)      1024        conv1d_39[0][0]                  
__________________________________________________________________________________________________
batch_normalization_40 (BatchNo (None, 29, 256)      1024        conv1d_40[0][0]                  
__________________________________________________________________________________________________
batch_normalization_41 (BatchNo (None, 26, 256)      1024        conv1d_41[0][0]                  
__________________________________________________________________________________________________
batch_normalization_42 (BatchNo (None, 27, 256)      1024        conv1d_42[0][0]                  
__________________________________________________________________________________________________
max_pooling1d_37 (MaxPooling1D) (None, 9, 256)       0           batch_normalization_37[0][0]     
__________________________________________________________________________________________________
max_pooling1d_38 (MaxPooling1D) (None, 13, 256)      0           batch_normalization_38[0][0]     
__________________________________________________________________________________________________
max_pooling1d_39 (MaxPooling1D) (None, 9, 256)       0           batch_normalization_39[0][0]     
__________________________________________________________________________________________________
max_pooling1d_40 (MaxPooling1D) (None, 9, 256)       0           batch_normalization_40[0][0]     
__________________________________________________________________________________________________
max_pooling1d_41 (MaxPooling1D) (None, 13, 256)      0           batch_normalization_41[0][0]     
__________________________________________________________________________________________________
max_pooling1d_42 (MaxPooling1D) (None, 9, 256)       0           batch_normalization_42[0][0]     
__________________________________________________________________________________________________
flatten_37 (Flatten)            (None, 2304)         0           max_pooling1d_37[0][0]           
__________________________________________________________________________________________________
flatten_38 (Flatten)            (None, 3328)         0           max_pooling1d_38[0][0]           
__________________________________________________________________________________________________
flatten_39 (Flatten)            (None, 2304)         0           max_pooling1d_39[0][0]           
__________________________________________________________________________________________________
flatten_40 (Flatten)            (None, 2304)         0           max_pooling1d_40[0][0]           
__________________________________________________________________________________________________
flatten_41 (Flatten)            (None, 3328)         0           max_pooling1d_41[0][0]           
__________________________________________________________________________________________________
flatten_42 (Flatten)            (None, 2304)         0           max_pooling1d_42[0][0]           
__________________________________________________________________________________________________
concatenate_13 (Concatenate)    (None, 7936)         0           flatten_37[0][0]                 
                                                                 flatten_38[0][0]                 
                                                                 flatten_39[0][0]                 
__________________________________________________________________________________________________
concatenate_14 (Concatenate)    (None, 7936)         0           flatten_40[0][0]                 
                                                                 flatten_41[0][0]                 
                                                                 flatten_42[0][0]                 
__________________________________________________________________________________________________
add_7 (Add)                     (None, 7936)         0           concatenate_13[0][0]             
                                                                 concatenate_14[0][0]             
__________________________________________________________________________________________________
dropout_7 (Dropout)             (None, 7936)         0           add_7[0][0]                      
__________________________________________________________________________________________________
dense_7 (Dense)                 (None, 20)           158740      dropout_7[0][0]                  
==================================================================================================
Total params: 3,695,020
Trainable params: 2,772,448
Non-trainable params: 922,572
__________________________________________________________________________________________________

  32/9944 [..............................] - ETA: 2s
 288/9944 [..............................] - ETA: 2s
…
