…
 90%|█████████ | 9/10 [1:44:29<08:23, 503.42s/it, best loss: -0.7636765888498755]                                                                                  - 6s 624us/step

 90%|█████████ | 9/10 [1:44:29<08:23, 503.42s/it, best loss: -0.7636765888498755]100%|██████████| 10/10 [1:44:29<00:00, 604.29s/it, best loss: -0.7636765888498755]
__________________________________________________________________________________________________
Layer (type)                    Output Shape         Param #     Connected to                     
==================================================================================================
inputs (InputLayer)             (None, 3065)         0                                            
__________________________________________________________________________________________________
reshape_7 (Reshape)             (None, 3065, 1)      0           inputs[0][0]                     
__________________________________________________________________________________________________
conv1d_19 (Conv1D)              (None, 3064, 64)     192         reshape_7[0][0]                  
__________________________________________________________________________________________________
conv1d_20 (Conv1D)              (None, 3062, 128)    640         reshape_7[0][0]                  
__________________________________________________________________________________________________
conv1d_21 (Conv1D)              (None, 3062, 128)    640         reshape_7[0][0]                  
__________________________________________________________________________________________________
max_pooling1d_19 (MaxPooling1D) (None, 1532, 64)     0           conv1d_19[0][0]                  
__________________________________________________________________________________________________
max_pooling1d_20 (MaxPooling1D) (None, 1020, 128)    0           conv1d_20[0][0]                  
__________________________________________________________________________________________________
max_pooling1d_21 (MaxPooling1D) (None, 1020, 128)    0           conv1d_21[0][0]                  
__________________________________________________________________________________________________
flatten_19 (Flatten)            (None, 98048)        0           max_pooling1d_19[0][0]           
__________________________________________________________________________________________________
flatten_20 (Flatten)            (None, 130560)       0           max_pooling1d_20[0][0]           
__________________________________________________________________________________________________
flatten_21 (Flatten)            (None, 130560)       0           max_pooling1d_21[0][0]           
__________________________________________________________________________________________________
concatenate_7 (Concatenate)     (None, 359168)       0           flatten_19[0][0]                 
                                                                 flatten_20[0][0]                 
                                                                 flatten_21[0][0]                 
__________________________________________________________________________________________________
dropout_7 (Dropout)             (None, 359168)       0           concatenate_7[0][0]              
__________________________________________________________________________________________________
dense_7 (Dense)                 (None, 20)           7183380     dropout_7[0][0]                  
==================================================================================================
Total params: 7,184,852
Trainable params: 7,184,852
Non-trainable params: 0
__________________________________________________________________________________________________
[0. 0. 0. 0. 0. 0. 1. 0. 0. 0. 0. 0. 0. 0. 0. 0. 0. 0. 0. 0.]
[0. 0. 0. 0. 0. 0. 0. 0. 0. 1. 0. 0. 0. 0. 0. 0. 0. 0. 0. 0.]
…
