…
 90%| | 9/10 [6:35:30<29:50, 1790.37s/it, best loss: -0.7394408689135998]                                                                                   - 4s 441us/step

 90%| | 9/10 [6:35:30<29:50, 1790.37s/it, best loss: -0.7394408689135998]100%|| 10/10 [6:35:30<00:00, 1757.58s/it, best loss: -0.7394408689135998]
__________________________________________________________________________________________________
Layer (type)                    Output Shape         Param #     Connected to                     
==================================================================================================
inputs (InputLayer)             (None, 30)           0                                            
__________________________________________________________________________________________________
embedding_3 (Embedding)         (None, 30, 300)      919500      inputs[0][0]                     
__________________________________________________________________________________________________
conv1d_7 (Conv1D)               (None, 29, 1024)     615424      embedding_3[0][0]                
__________________________________________________________________________________________________
conv1d_8 (Conv1D)               (None, 26, 1024)     1537024     embedding_3[0][0]                
__________________________________________________________________________________________________
conv1d_9 (Conv1D)               (None, 26, 1024)     1537024     embedding_3[0][0]                
__________________________________________________________________________________________________
max_pooling1d_7 (MaxPooling1D)  (None, 14, 1024)     0           conv1d_7[0][0]                   
__________________________________________________________________________________________________
max_pooling1d_8 (MaxPooling1D)  (None, 13, 1024)     0           conv1d_8[0][0]                   
__________________________________________________________________________________________________
max_pooling1d_9 (MaxPooling1D)  (None, 8, 1024)      0           conv1d_9[0][0]                   
__________________________________________________________________________________________________
flatten_7 (Flatten)             (None, 14336)        0           max_pooling1d_7[0][0]            
__________________________________________________________________________________________________
flatten_8 (Flatten)             (None, 13312)        0           max_pooling1d_8[0][0]            
__________________________________________________________________________________________________
flatten_9 (Flatten)             (None, 8192)         0           max_pooling1d_9[0][0]            
__________________________________________________________________________________________________
concatenate_3 (Concatenate)     (None, 35840)        0           flatten_7[0][0]                  
                                                                 flatten_8[0][0]                  
                                                                 flatten_9[0][0]                  
__________________________________________________________________________________________________
dropout_3 (Dropout)             (None, 35840)        0           concatenate_3[0][0]              
__________________________________________________________________________________________________
dense_3 (Dense)                 (None, 20)           716820      dropout_3[0][0]                  
==================================================================================================
Total params: 5,325,792
Trainable params: 5,325,792
Non-trainable params: 0
__________________________________________________________________________________________________

  32/9944 [..............................] - ETA: 12s
  96/9944 [..............................] - ETA: 10s
…
