…
 90%|█████████ | 9/10 [2:40:48<14:27, 867.62s/it, best loss: -0.7409493161705552]                                                                                  - 5s 524us/step

 90%|█████████ | 9/10 [2:40:48<14:27, 867.62s/it, best loss: -0.7409493161705552]100%|██████████| 10/10 [2:40:48<00:00, 1044.35s/it, best loss: -0.7409493161705552]
__________________________________________________________________________________________________
Layer (type)                    Output Shape         Param #     Connected to                     
==================================================================================================
inputs (InputLayer)             (None, 30)           0                                            
__________________________________________________________________________________________________
embedding_3 (Embedding)         (None, 30, 300)      919500      inputs[0][0]                     
__________________________________________________________________________________________________
conv1d_7 (Conv1D)               (None, 29, 1024)     615424      embedding_3[0][0]                
__________________________________________________________________________________________________
conv1d_8 (Conv1D)               (None, 26, 256)      384256      embedding_3[0][0]                
__________________________________________________________________________________________________
conv1d_9 (Conv1D)               (None, 26, 2048)     3074048     embedding_3[0][0]                
__________________________________________________________________________________________________
max_pooling1d_7 (MaxPooling1D)  (None, 14, 1024)     0           conv1d_7[0][0]                   
__________________________________________________________________________________________________
max_pooling1d_8 (MaxPooling1D)  (None, 13, 256)      0           conv1d_8[0][0]                   
__________________________________________________________________________________________________
max_pooling1d_9 (MaxPooling1D)  (None, 8, 2048)      0           conv1d_9[0][0]                   
__________________________________________________________________________________________________
flatten_7 (Flatten)             (None, 14336)        0           max_pooling1d_7[0][0]            
__________________________________________________________________________________________________
flatten_8 (Flatten)             (None, 3328)         0           max_pooling1d_8[0][0]            
__________________________________________________________________________________________________
flatten_9 (Flatten)             (None, 16384)        0           max_pooling1d_9[0][0]            
__________________________________________________________________________________________________
concatenate_3 (Concatenate)     (None, 34048)        0           flatten_7[0][0]                  
                                                                 flatten_8[0][0]                  
                                                                 flatten_9[0][0]                  
__________________________________________________________________________________________________
dropout_3 (Dropout)             (None, 34048)        0           concatenate_3[0][0]              
__________________________________________________________________________________________________
dense_3 (Dense)                 (None, 20)           680980      dropout_3[0][0]                  
==================================================================================================
Total params: 5,674,208
Trainable params: 5,674,208
Non-trainable params: 0
__________________________________________________________________________________________________
[0. 0. 0. 0. 0. 0. 1. 0. 0. 0. 0. 0. 0. 0. 0. 0. 0. 0. 0. 0.]
[0. 0. 0. 0. 0. 0. 0. 0. 0. 1. 0. 0. 0. 0. 0. 0. 0. 0. 0. 0.]
…
